src/mnist_cnn_model.pth (torch, 830944 bytes, 8 tensors)

conv1.weight f4 [16, 1, 3, 3]
-0.5965648 -0.12804665 -0.093182944 -0.18385857 -0.074540906 0.5118303 -0.049207855 0.19623034
0.4945807 0.06572742 0.23627372 0.03494595 0.37122908 0.48602548 0.04329024 -0.24524423
0.14303777 0.22878236 0.25611663 0.26629597 -0.354717 -0.018789383 0.31072202 -0.6336505
0.48997927 -0.17063966 -0.33559704 0.13740134 0.5541708 0.0025637988 0.36328202 0.20141199
-0.5836253 0.4938813 -0.2028629 -0.8032191 0.36569244 0.42589504 0.20518158 0.26147774
0.041051697 0.09094586 -0.10439442 0.2830598 -0.3452588 0.44512412 0.347834 -0.121211916
-0.12556677 0.12069312 -0.39200544 0.22448443 0.11695035 -0.14852944 0.08672271 0.036241084
0.44017428 -0.39074817 0.093786396 0.34148923 -0.53272617 -0.14183335 0.46340647 0.43466124
0.015158957 0.27317885 0.17820941 0.3017484 0.061669584 0.044020537 -0.51451695 -0.4838776
-0.20432602 0.060036656 0.17629981 0.47826892 0.40637594 -0.3695123 0.17988403 0.2349957
-0.38577458 0.038561903 -0.29040402 0.051647328 -0.15352875 0.1347024 -0.18927284 -0.27916497
0.1361892 -0.079119 0.24770747 0.09819388 -0.2385242 -0.04544064 0.1032409 0.28761235
0.3325085 0.32323557 0.029660966 -0.08457003 -0.5210561 -0.64527494 0.3036094 0.17167607
-0.20899326 0.17817329 0.56757575 0.38386035 0.29776677 0.48756713 0.5552507 -0.310252
-0.06950766 0.4502525 -0.31828928 -0.6868202 -0.43829808 -0.23530881 0.28099507 0.13156416
-0.05669678 0.20239171 0.36434895 0.09321823 0.41973194 0.31419 -0.5462643 -0.19325039
-0.06869581 -0.30205634 -0.42213944 -0.5971176 0.36718747 0.16721952 -0.0005820803 0.025918907
-0.10137825 0.26695096 0.45459792 0.16881692 -0.21952972 0.27965635 -0.24044125 -0.098096766
00000000: 79b8 18bf a91e 03be b3d6 bebd 6c45 3cbe
00000010: e7a8 98bd 4f07 033f 2d8e 49bd 9bf0 483e
00000020: ae39 fd3e 199c 863d bdf1 713e 7c23 0f3d
00000030: bd11 be3e 55d8 f83e 1b51 313d 4e21 7bbe
00000040: 7e78 123e ec45 6a3e b821 833e f257 883e
00000050: 779d b5be 31ec 99bc f516 9f3e eb36 22bf
00000060: 90de fa3e 2abc 2ebe 60d3 abbe f0b2 0c3e
00000070: 23de 0d3f 6805 283b 1a00 ba3e f23e 4e3e
00000080: 7868 15bf 02de fc3e 4bbb 4fbe c49f 4dbf
00000090: 0a3c bb3e ea0e da3e 1f1b 523e 69e0 853e
000000a0: d325 283d d341 ba3d becc d5bd 37ed 903e
000000b0: c3c5 b0be 4fe7 e33e 4c17 b23e f43d f8bd
000000c0: 9394 00be f42d f73d f0b4 c8be 3fdf 653e
000000d0: aa83 ef3d 1a18 18be ad9b b13d 8871 143d
000000e0: 865e e13e 2510 c8be 1513 c03d add7 ae3e
000000f0: be60 08bf c33c 11be 9d43 ed3e eb8b de3e
00000100: 465d 783c 19de 8b3e 877c 363e c47e 9a3e
00000110: 3f99 7c3d e14e 343d 62b7 03bf cebe f7be
00000120: d73a 51be ffe8 753d f087 343e aadf f43e
00000130: 8210 d03e b730 bdbe 8533 383e b6a2 703e
00000140: 3f84 c5be 16f3 1d3d d6af 94be 268c 533d
00000150: a436 1dbe 6def 093e bdd0 41be b6ee 8ebe
00000160: 2f75 0b3e 2409 a2bd 07a7 7d3e df19 c93d
00000170: b03f 74be f71f 3abd f76f d33d ed41 933e
00000180: 8e3e aa3e 227f a53e 8efb f23c 0d33 adbd
00000190: ef63 05bf bd30 25bf b172 9b3e dacb 2f3e
000001a0: 5402 56be 0f73 363e a54c 113f 5889 c43e
000001b0: e374 983e 66a2 f93e e924 0e3f 5ad9 9ebe
000001c0: 085a 8ebd 7f87 e63e d0f6 a2be 73d3 2fbf
000001d0: 9b68 e0be cbf4 70be 96de 8f3e c1b8 063e
000001e0: e23a 68bd c63f 4f3e f28b ba3e 33e9 be3d
000001f0: 1be7 d63e 83dd a03e fad7 0bbf 6ee3 45be
00000200: 64b0 8cbd 21a7 9abe a922 d8be b3dc 18bf
00000210: ffff bb3e 983b 2b3e bf96 18ba e353 d43c
00000220: 669f cfbd ccad 883e 0fc1 e83e 58de 2c3e
00000230: 66cc 60be 1e2f 8f3e 3b36 76be f5e6 c8bd

conv1.bias f4 [16]
-0.0038377624 -0.09978988 0.17669831 0.036944073 -0.078341275 -0.036250737 0.06393353 -0.0183427
-0.022813676 -0.3020335 -0.15241487 -0.00042206788 -0.00088329776 -0.1758771 0.35611695 -0.061607283
00000000: f882 7bbb a35e ccbd 67f0 343e ab52 173d
00000010: 6471 a0bd a77b 14bd 95ef 823d 6e43 96bc
00000020: bfe3 babc 23a4 9abe a512 1cbe fe48 ddb9
00000030: 1c8d 67ba 2019 34be f654 b63e eb57 7cbd

conv2.weight f4 [32, 16, 3, 3]
-0.008494056 0.12483475 -0.09143459 -0.008090625 -0.022629464 -0.116203755 -0.19004408 -0.041624542
0.020756079 0.077215925 0.054858148 -0.042366643 0.091169715 0.06994289 -0.004199013 -0.05366618
0.12472551 0.13651203 -0.058973633 0.0798768 0.046814036 0.0060886513 -0.04793717 0.0037919325
-0.15458754 -0.19216537 -0.14316247 0.068111114 0.17753625 0.1986205 -0.08837731 -0.12653229
0.0010861105 -0.17581914 -0.21936043 -0.18358272 -0.087779954 -0.07623833 -0.040995825 0.017187702
0.0038235073 -0.11362321 -0.03350436 0.025982449 -0.048478995 0.030236337 0.009091319 0.062180102
0.0057948004 0.007757332 0.009816953 -0.023914116 -0.14938703 0.01722174 -0.11299242 0.0114222495
-0.0151574565 -0.025992425 0.08881047 -0.15695669 -0.06988422 0.17294767 0.107788175 0.034577813
-0.09368874 0.15237965 0.05066968 -0.19421254 -0.11485877 -0.022839688 0.062859505 -0.073759794
-0.008463872 0.1082122 0.085056886 -0.0132729905 0.006644503 -0.0020460046 -0.08042781 -0.19049561
0.019437049 0.011430915 0.019412957 0.07659323 0.037009314 0.06243658 -0.05772086 -0.048360273
0.047732867 -0.061331406 0.064705126 -0.06957004 -0.094677575 -0.06116867 -0.017247861 0.010384063
-0.07392287 0.04031999 -0.008902749 0.18510087 0.19537836 -0.14180069 -0.07995249 0.35547543
0.41818616 -0.11283742 0.13388848 0.42011607 -0.25064155 -0.29250157 0.06581992 0.17755073
0.13832855 -0.22525153 0.25927296 0.48524502 0.26920575 0.02868381 -0.061803404 -0.051589556
-0.11223147 -0.013372634 -0.061193094 -0.115801 -0.030242456 -0.075965196 -0.22661856 -0.15153159
-0.22176567 -0.19885282 -0.14894493 -0.16355167 -0.103042014 -0.218903 -0.1845248 0.101313956
0.00052586 0.1443905 -0.025163187 -0.006106593 0.031018496 -0.113166556 -0.1002245 0.021871787
0.22294764 -0.069307394 0.100811005 0.009806958 -0.069951735 0.04377366 -0.03829458 -0.16399536
0.015980968 -0.019965816 0.030749049 -0.01744037 -0.038262133 -0.036758445 -0.112051494 0.08776588
0.053652186 0.06469043 -0.038764786 0.008279046 -0.06851407 -0.02018052 0.08798787 -0.043046743
-0.08094374 -0.0788305 -0.16335766 -0.013996754 0.2243183 -0.039045475 -0.15236889 0.059331108
-0.14781918 -0.05167874 -0.13045235 -0.014799681 0.037138026 0.049421016 -0.13790894 -0.0011574533
0.009561521 -0.13353515 -0.027686497 0.083136745 0.07341833 -0.011143982 0.030926872 -0.004577041
-0.07429182 0.037898917 -0.10498828 -0.06838194 -0.03528474 0.03656641 0.18539494 -0.03705509
0.0074503566 0.08689044 -0.039551392 0.06492887 -0.056069374 -0.10965544 0.023596557 -0.20238481
0.13329992 -0.020602118 -0.20387036 -0.13522731 -0.17984875 0.08967235 0.18576111 0.15064219
-0.027744392 0.08142682 -0.031044492 -0.118560426 -0.009343814 -0.018745724 0.105684675 -0.0011430575
0.064389326 0.0053333747 -0.039262023 -0.02897554 -0.07173686 -0.008476986 -0.05582364 -0.039576314
0.010330159 0.04573744 -0.08458198 0.06904733 -0.17611942 0.049744926 0.011992815 0.071071394
0.049232736 0.049337015 -0.022131069 -0.29398492 -0.14534593 -0.167612 -0.048403975 0.10880696
0.23568082 0.21621439 0.28489107 0.15034863 -0.08500761 -0.38959152 -0.057809908 0.041310474
00000000: a72a 0bbc 5da9 ff3d 0f42 bbbd 8a8e 04bc
00000010: 6d61 b9bc 3cfc edbd ea9a 42be 7f7e 2abd
00000020: a708 aa3c 6223 9e3d f0b2 603d a588 2dbd
00000030: 30b7 ba3d 383e 8f3d e097 89bb 12d1 5bbd
00000040: 1770 ff3d cfc9 0b3e 568e 71bd 7396 a33d
00000050: 13c0 3f3d 4f83 c73b c459 44bd 1282 783b
00000060: 324c 1ebe 00c7 44be 2f99 12be d77d 8b3d
00000070: 10cc 353e 2c63 4b3e 2aff b4bd ae91 01be
00000080: d25b 8e3a ef09 34be 05a0 60be 1cfd 3bbe
00000090: fac5 b3bd d722 9cbd 3deb 27bd 39cd 8c3c
000000a0: cf93 7a3b 49b3 e8bd de3b 09bd 25d9 d43c
000000b0: e991 46bd 32b2 f73c c1f3 143c 90b0 7e3d
000000c0: 4fe2 bd3b 3831 fe3b 49d7 203c 89e7 c3bc
000000d0: eaf8 18be 9b14 8d3c 9268 e7bd 6324 3b3c
000000e0: fb56 78bc 11ee d4bc 44e2 b53d 41b9 20be
000000f0: 751f 8fbd 3219 313e 0cc0 dc3d 77a1 0d3d
00000100: e2df bfbd 6909 1c3e 038b 4f3d a7df 46be
00000110: 133b ebbd 4c1a bbbc 7cbc 803d 600f 97bd
00000120: 0dac 0abc 5c9e dd3d 4e32 ae3d f576 59bc
00000130: 22ba d93b 4316 06bb 56b7 a4bd 4811 43be
00000140: 723a 9f3c bc48 3b3c ec07 9f3c e9dc 9c3d
00000150: 1497 173d 80bd 7f3d b56c 6cbd 6c15 46bd
00000160: 8a83 433d a436 7bbd 1f84 843d bd7a 8ebd
00000170: 51e6 c1bd 008c 7abd 634b 8dbc eb21 2a3c
00000180: e064 97bd 9326 253d d6dc 11bc 158b 3d3e
00000190: 4411 483e 3334 11be 22be a3bd e000 b63e
000001a0: 7f1c d63e 4e17 e7bd 101a 093e 7419 d73e
000001b0: 1754 80be c4c2 95be 98cc 863d dccf 353e
000001c0: 00a6 0d3e 56a8 66be 6dbf 843e 0972 f83e
000001d0: 56d5 893e 4ffa ea3c 9125 7dbd 924f 53bd
000001e0: 9dd9 e5bd e418 5bbc 9ca5 7abd 1329 edbd
000001f0: 07bf f7bc a493 9bbd b20e 68be 192b 1bbe
00000200: 8a16 63be 13a0 4bbe 0585 18be 177a 27be
00000210: b107 d3bd 1c28 60be 12f4 3cbe b17d cf3d
00000220: ded9 093a 1adb 133e 0723 cebc d119 c8bb
00000230: 801a fe3c dec3 e7bd 8142 cdbd 762c b33c
00000240: 634c 643e 09f1 8dbd 0076 ce3d 5dad 203c
00000250: db42 8fbd 024c 333d c7da 1cbd 66ee 27be
00000260: 85ea 823c 5a8f a3bc 6ee5 fb3c 1bdf 8ebc
00000270: c1b8 1cbd 0690 16bd 417b e5bd 99be b33d
00000280: 65c2 5b3d 6b7c 843d d3c7 1ebd d6a4 073c
00000290: 1b51 8cbd 9e51 a5bc fc32 b43d c851 30bd
000002a0: d5c5 a5bd e371 a1bd 3b47 27be a452 65bc
000002b0: b2b3 653e 26ee 1fbd 9706 1cbe 2d05 733d
000002c0: e95d 17be 16ad 53bd 4d95 05be 5c7a 72bc
000002d0: 0b1e 183d b16d 4a3d 0038 0dbe b0b5 97ba
000002e0: eda7 1c3c 70bd 08be cbce e2bc 9943 aa3d
000002f0: 595c 963d 4095 36bc 5a5a fd3c 01fb 95bb
00000300: 4f26 98bd e53b 1b3d 1804 d7bd d50b 8cbd
00000310: bb86 10bd a9c6 153d 2cd8 3d3e 14c7 17bd
00000320: 1f22 f43b 9df3 b13d a400 22bd 6df9 843d
00000330: 00a9 65bd 0893 e0bd 914d c13c f73d 4fbe
00000340: c67f 083e c6c5 a8bc 64c3 50be 0779 0abe
00000350: 452a 38be 23a6 b73d 2938 3e3e f241 1a3e
00000360: 3548 e3bc 1bc3 a63d 0551 febc cfcf f2bd
00000370: cc16 19bc a290 99bc 3571 d83d a5d2 95ba
00000380: 8dde 833d 97c3 ae3b 37d1 20bd 1d5e edbc
00000390: c6ea 92bd 0ee3 0abc 54a7 64bd c61a 22bd
000003a0: d43f 293c 2f57 3b3d 5139 adbd b068 8d3d
000003b0: a658 34be 56c1 4b3d 837d 443c e18d 913d
000003c0: 44a8 493d 9c15 4a3d 374c b5bc 3185 96be
000003d0: 90d5 14be 7ba2 2bbe 3f43 46bd 2fd6 de3d
000003e0: 5056 713e 4e67 5d3e 3edd 913e fef4 193e
000003f0: 7818 aebd 8a78 c7be 15ca 6cbd 2c35 293d

conv2.bias f4 [32]
-0.16452497 -0.1066567 -0.028636392 0.008740343 -0.009709714 0.009597555 -0.09596567 -0.083962515
0.008167124 -0.04621499 -0.03971366 -0.009140087 -0.03973801 -0.043085884 -0.13362128 -0.14717343
-0.04728789 -0.02986571 -0.02783172 -0.11368387 -0.0062600095 -0.005917795 -0.04635073 -0.098709285
-0.13550398 -0.082944945 -0.0014947889 0.032707855 -0.04709415 -0.0823329 -0.05448477 -0.03766318
00000000: 3c79 28be d46e dabd de96 eabc a833 0f3c
00000010: 7e15 1fbc 103f 1d3c a689 c4bd 8af4 abbd
00000020: 67cf 053c ee4b 3dbd caaa 22bd 4ec0 15bc
00000030: 53c4 22bd d37a 30bd 04d4 08be a2b4 16be
00000040: f2b0 41bd efa8 f4bc 59ff e3bc 17d3 e8bd
00000050: c420 cdbb 10ea c1bb 43da 3dbd 1828 cabd
00000060: 8ec1 0abe 0adf a9bd cbec c3ba acf8 053d
00000070: cce5 40bd 279e a8bd 6c2b 5fbd b544 1abd

fc1.weight f4 [128, 1568]
-0.011240007 -0.019362992 0.02408205 0.0064377366 0.047004223 0.015170659 0.021286912 -0.002136472
0.02374073 9.11956e-05 0.0046765655 0.0029684359 -0.0036805302 -0.022299245 0.009973347 0.002240621
0.010687306 0.016773906 -0.028359037 0.015377661 -0.025858684 -0.024491778 0.003672888 -0.010603803
0.002836311 -9.960535e-05 -0.027002983 0.0007016191 -0.024910545 0.012571804 -0.00995479 -0.025104167
0.024088146 -0.02344367 -0.0026741473 5.026614e-05 0.02434135 0.0020792156 -0.031770866 0.011351561
-0.0058881133 0.027226638 -0.0039893677 -0.021450259 2.7873983e-05 -0.015078776 -0.018791284 -0.016204901
-0.009987295 -0.028948791 -0.01896827 0.0048597697 -0.008834556 0.014842429 -0.0117815165 0.0058301166
0.023094777 0.006251895 -0.005274072 0.016486293 -0.011681154 -0.028246494 -0.019791964 -0.0066268486
0.01562376 -0.0022747542 -0.018523626 -0.0013735861 0.015519119 0.0029523582 0.0052993465 -0.011324373
-0.00027875713 -0.008103343 0.0034415217 -0.030730058 0.0051670424 0.015227957 0.011633804 -0.0023805627
-0.010096672 0.0017116987 0.011075443 0.01837062 0.010085652 0.0016829383 0.0011494851 0.014548399
-0.0057744305 -0.018533675 -0.020799426 -0.010862465 0.006850101 0.004810415 -0.044864424 -0.021049155
0.0060215443 -0.009639291 -0.021663748 -0.029072268 -0.02133129 0.013403975 -0.004391988 -0.025352236
-0.0078050336 0.005698714 0.020120135 0.013330835 -0.012195462 0.0048338254 0.009993279 0.018170455
0.008583031 0.017040472 -0.0045211674 -0.03034675 0.008598703 0.008724699 -0.018243711 -0.021091439
-0.019006798 0.0054867063 -0.019608987 0.015749028 -0.025079435 -0.0008302346 0.0099892 -0.011521473
-0.006784861 -0.016103009 0.00684504 0.017695924 0.015908279 -0.0030357074 -0.0028932588 -0.02975882
0.012543095 0.018940669 -0.01418732 -0.018419487 -0.022124171 -0.030373147 0.0053888396 -0.014333721
-0.026001802 -0.022014858 -0.012838664 -0.0019796602 -0.011453358 -0.021196576 0.009262909 -0.024517287
0.008080184 -0.01276175 -0.007974882 -0.0030112918 0.004881555 -0.01230812 -0.003564808 -0.007164428
-0.029724896 -0.024201836 0.007229159 -0.009857373 0.010009964 -0.030362489 0.0024085185 -0.010539036
-0.02911436 -0.018313408 0.017329117 -0.018268202 -0.010420521 -0.023313861 -0.021879856 -0.012218739
0.0064051845 -0.012991638 -0.015423605 -0.007634173 -0.018345634 -0.027665721 -0.02244107 -0.02762592
-0.0061315256 -0.009017955 0.01865941 -0.022653885 -0.02841175 -0.030217545 -0.010606877 0.0024145816
-0.012752575 0.008027527 -0.017782766 0.0027478074 -0.0038423815 -0.023048783 -0.0098147765 -0.015974756
0.0060174386 -0.015407315 0.0067322897 0.017010704 -0.0056343554 0.018619375 -0.026076421 0.01433735
-0.009244597 -0.02661724 0.0016038241 0.012502717 -0.0001899007 -0.014741795 0.016831135 -0.030959984
-0.007927887 -0.020727303 -0.019088209 -0.031842817 0.012802143 -0.006480767 0.003983868 -0.013628264
0.004247656 0.016589267 -0.00981752 -0.017616214 0.023599654 0.018180985 0.0040261443 -0.025040494
0.013373734 -0.000782639 0.0016872021 -0.003345962 0.008850943 0.006762778 -0.029674685 -0.017105661
-0.030235749 -0.031091452 -0.004889593 0.007592041 -0.027819842 0.01684795 -0.023338957 -0.0022979225
-0.023893408 -0.009503344 -0.010823634 -0.0073451106 -0.014343115 0.006142382 -0.01659254 -0.020288855
00000000: 0228 38bc 239f 9ebc b847 c53c a6f3 d23b
00000010: 8087 403d 5b8e 783c e461 ae3c 0d04 0cbb
00000020: eb7b c23c 4440 bf38 e03d 993b 178a 423b
00000030: 0d35 71bb e8ac b6bc 4067 233c 62d7 123b
00000040: cf19 2f3c 6e69 893c 3651 e8bc 96f2 7b3c
00000050: 97d5 d3bc fba2 c8bc d6b4 703b 93bb 2dbc
00000060: 67e1 393b 37e3 d0b8 5c35 ddbc dcec 373a
00000070: 3311 ccbc f8f9 4d3c 6a19 23bc 41a7 cdbc
00000080: 8154 c53c f00c c0bc bf40 2fbb dbd4 5238
00000090: 8367 c73c 7343 083b 2b22 02bd e6fb 393c
000000a0: 13f1 c0bb 660a df3c 3eb9 82bb 74b8 afbc
000000b0: ecd2 e937 f80c 77bc 2ef0 99bc 24c0 84bc
000000c0: c0a1 23bc 0426 edbc 5863 9bbc b43e 9f3b
000000d0: d0be 10bc a92d 733c 4307 41bc 900a bf3b
000000e0: 4231 bd3c b2dc cc3b 1fd2 acbb 430e 873c
000000f0: 5062 3fbc 3165 e7bc c222 a2bc 0926 d9bb
00000100: cdfa 7f3c 0b14 15bb dcbe 97bc e709 b4ba
00000110: e743 7e3c 5a7c 413b 24a6 ad3b dd89 39bc
00000120: 2626 92b9 e2c3 04bc 278b 613b 9abd fbbc
00000130: 4b50 a93b ae7e 793c b69b 3e3c 3703 1cbb
00000140: 836c 25bc 145b e03a c675 353c fc7d 963c
00000150: 4a3e 253c 0a96 dc3a 52aa 963a 685c 6e3c
00000160: 6f37 bdbb efd3 97bc 8f63 aabc 7bf8 31bc
00000170: d076 e03b b0a0 9d3b c2c3 37bd 476f acbc
00000180: 6050 c53b 1eee 1dbc 2c78 b1bc f728 eebc
00000190: f5be aebc 599c 5b3c aaea 8fbb 7eaf cfbc
000001a0: 5ec1 ffbb 47bc ba3b fbd2 a43c 9369 5a3c
000001b0: 7acf 47bc 1165 9e3b daba 233c 35da 943c
000001c0: d79f 0c3c 7698 8b3c 4d26 94bb bf99 f8bc
000001d0: 93e1 0c3c 0af2 0e3c d673 95bc f4c7 acbc
000001e0: 25b4 9bbc d4c9 b33b 07a3 a0bc 1b04 813c
000001f0: 6373 cdbc 1aa4 59ba bea9 233c 8fc4 3cbc
00000200: 8a53 debb 75ea 83bc 5b4c e03b 0bf7 903c
00000210: 1452 823c b8f2 46bb d49c 3dbb c5c8 f3bc
00000220: 8e81 4d3c 7629 9b3c ef71 68bc 77e4 96bc
00000230: c03d b5bc 1bd1 f8bc dd94 b03b fcd7 6abc
00000240: bb01 d5bc 8158 b4bc 4359 52bc 30bd 01bb
00000250: dea6 3bbc 71a4 adbc 75c3 173c 7ad8 c8bc
00000260: c062 043c a916 51bc 14a9 02bc 1859 45bb
00000270: 74f5 9f3b ffa7 49bc 8e9f 69bb 94c3 eabb
00000280: a081 f3bc ee42 c6bc 95e2 ec3b d280 21bc
00000290: d500 243c c1ba f8bc 3cd8 1d3b ecab 2cbc
000002a0: 3d81 eebc 0006 96bc cbf5 8d3c 32a7 95bc
000002b0: d5ba 2abc b6fc bebc 623d b3bc 1b31 48bc
000002c0: 95e2 d13b e1da 54bc 4ab3 7cbc 1628 fabb
000002d0: 9549 96bc 39a3 e2bc 56d6 b7bc c14f e2bc
000002e0: f7ea c8bb 0bc0 13bc 9edb 983c a494 b9bc
000002f0: c2bf e8bc c98a f7bc 77c8 2dbc f53d 1e3b
00000300: 2df0 50bc e385 033c 2aad 91bc 8f14 343b
00000310: 77d0 7bbb cdd0 bcbc 28ce 20bc 7edd 82bc
00000320: ef2d c53b f76e 7cbc 8a9a dc3b 085a 8b3c
00000330: 66a0 b8bb a987 983c 389e d5bc 34e7 6a3c
00000340: a676 17bc 660c dabc 6837 d23a 32d8 4c3c
00000350: 1520 47b9 9287 71bc 73e1 893c cb9f fdbc
00000360: f8e3 01bc 4ecc a9bc e05e 9cbc 9d6d 02bd
00000370: 14c0 513c 9d5c d4bb 1b8b 823b 1549 5fbc
00000380: ec2f 8b3b 37e6 873c aad9 20bc e14f 90bc
00000390: 1054 c13c 4af0 943c bfed 833b b921 cdbc
000003a0: 821d 5b3c 042a 4dba 1c25 dd3a ed47 5bbb
000003b0: 8c03 113c 4b9a dd3b 5318 f3bc 2c21 8cbc
000003c0: f6b0 f7bc 80b3 febc e138 a0bb a8c6 f83b
000003d0: 70e6 e3bc b604 8a3c 5731 bfbc be98 16bb
000003e0: 1cbc c3bc eab3 1bbc 9d55 31bc 41af f0bb
000003f0: 62ff 6abc 0946 c93b 14ed 87bc d034 a6bc

fc1.bias f4 [128]
0.018357866 0.027252547 0.0021095956 -0.037768494 -0.0067790444 -0.023112409 -0.017655838 0.0007481269
0.007933336 -0.03344238 0.005336891 0.022734964 -0.019314924 0.02637743 0.0103071695 -0.012860876
0.01920152 0.0021679015 0.011383865 -0.03680933 -0.0012492151 -0.010081267 -0.0047115376 -0.01650358
0.022941325 -0.032897506 -0.006098906 0.018484576 -0.014884949 0.0045787203 -0.006333296 -0.0029712077
0.0088398475 -0.02852161 0.018907709 -0.026923284 -0.007920655 -0.0051229135 -0.040722873 -0.011777191
-0.0008434887 -0.02471129 0.043276414 0.0028696933 -0.002331475 0.0089591155 0.017273277 -0.021761343
-0.015506803 0.013309163 -0.015459239 0.010718119 0.0031366195 0.00071622577 0.040749196 -0.022004561
-0.045503113 0.021448633 -0.007852742 0.03995185 -0.03436455 -0.02517392 0.014550281 0.005702566
-0.0064925617 0.014612275 0.01228765 -0.015995165 -0.015709428 0.017099768 0.034213588 -0.02029528
0.027183421 -0.028986674 -0.0033593543 0.01679682 0.020587984 0.018613331 -0.014847024 0.025266787
0.0055529196 0.02097554 -0.026157837 -0.02722969 -0.010284658 -0.029011011 -0.005091664 -0.025331803
-0.020675877 0.022724312 -0.002722725 0.038108032 -0.023096992 0.014622263 -0.009069458 -0.019199636
-0.041594353 -0.048162807 0.021851856 0.0124586765 0.019780526 0.02052219 0.012777226 -0.022510815
-0.024731522 0.018628493 0.013181473 0.020820698 -0.017624468 0.006934582 -0.009276637 -0.038173214
-0.0054928297 0.034236122 0.041685857 -7.332013e-05 -0.02152812 -0.009798771 -0.039901704 -0.00735441
-0.02170378 -0.017116223 0.03245042 0.008390325 0.03448061 0.010159545 -0.014193157 -0.024914104
00000000: 3c63 963c bc40 df3c 2441 0a3b 23b3 1abd
00000010: bf22 debb 3c56 bdbc faa2 90bc f21d 443a
00000020: d3fa 013c e1fa 08bd 16e1 ae3b ad3e ba3c
00000030: 553a 9ebc 7b15 d83c 67df 283c 6cb6 52bc
00000040: 824c 9d3c 5a13 0e3b 6483 3a3c 61c5 16bd
00000050: b4bc a3ba e62b 25bc 3e63 9abb 8432 87bc
00000060: 72ef bb3c 89bf 06bd 55d9 c7bb f76c 973c
00000070: 00e0 73bc 1709 963b 8a87 cfbb 98b8 42bb
00000080: 02d5 103c 27a6 e9bc 57e4 9a3c 388e dcbc
00000090: a3c5 01bc 1dde a7bb 07cd 26bd 1ff5 40bc
000000a0: 921d 5dba 556f cabc 9c42 313d 7711 3c3b
000000b0: a9cb 18bb 41c9 123c b080 8d3c d844 b2bc
000000c0: 3f10 7ebc ad0e 5a3c bf48 7dbc 0d9b 2f3c
000000d0: be8f 4d3b 19c1 3b3a a1e8 263d e942 b4bc
000000e0: 7961 3abd 0bb5 af3c caa8 00bc 8da4 233d
000000f0: d8c1 0cbd 8939 cebc 4d64 6e3c 97dc ba3b
00000100: 8ebf d4bb 5368 6f3c 2452 493c 4b08 83bc
00000110: 0fb1 80bc d014 8c3c 8c23 0c3d 4942 a6bc
00000120: c4af de3c 7675 edbc 9d28 5cbb 7c99 893c
00000130: 22a8 a83c fc7a 983c ef40 73bc 4bfc ce3c
00000140: 44f5 b53b e5d4 ab3c f648 d6bc cd10 dfbc
00000150: fb80 28bc 80a8 edbc f9d7 a6bb a484 cfbc
00000160: 7560 a9bc 5628 ba3c bf6f 32bb 2b17 1c3d
00000170: e735 bdbc 3792 6f3c 1098 14bc 8e48 9dbc
00000180: d75e 2abd 5d46 45bd aa02 b33c 7a1f 4c3c
00000190: c50a a23c 271e a83c 9257 513c 9a68 b8bc
000001a0: c399 cabc c89a 983c 1bf7 573c 2b90 aa3c
000001b0: 3061 90bc 7d3b e33b 09fd 17bc 845b 1cbd
000001c0: 32fd b3bb 2d3b 0c3d cabe 2a3d 72c3 99b8
000001d0: bd5b b0bc 068b 20bc f86f 23bd 43fd f0bb
000001e0: 20cc b1bc 5237 8cbc bbea 043d 9377 093c
000001f0: 8a3b 0d3d 3874 263c 6a8a 68bc aa18 ccbc

fc2.weight f4 [10, 128]
0.006881733 0.13675521 -0.15918049 -0.044221696 0.12962143 -0.0660893 -0.022122284 0.05749932
0.031114973 -0.0439932 -0.027881524 0.047876064 -0.08183063 0.08814631 -0.056731433 0.025782641
-0.14690806 0.09661319 0.12637644 -0.039226674 -0.020649556 0.05349051 0.012273885 -0.18959746
0.09516308 -0.018185537 -0.07683142 0.1167483 0.113054305 0.010743599 -0.02506088 0.069883205
-0.06794589 -0.07949195 0.18700416 0.078848734 -0.0836015 0.06141286 -0.052724723 -0.012146175
-0.14734903 -0.2437717 0.020780083 0.02199514 -0.063219756 0.017891303 0.10555723 -0.001977427
-0.030216618 -0.04013205 -0.021199474 0.011902352 0.066196844 -0.012565484 -0.22847699 -0.039698165
0.018274916 -0.07038941 0.040603396 0.06476337 -0.0049849437 -0.05304534 0.12342536 -0.0846066
-0.22854145 -0.05565113 0.08316535 0.01949105 -0.11581528 0.04570958 -0.08695055 -0.006578457
0.063027024 -0.014932906 -0.06335298 -0.048957564 0.056642458 -0.111519836 -0.07526161 -0.11497913
-0.22401665 0.0856937 -0.16915174 0.008607176 0.050581444 0.04059775 -0.07950183 0.15845503
0.0096406555 -0.18150835 -0.057976175 0.040783424 -0.033765946 -0.016142549 0.088266164 -0.11937392
-0.29483694 -0.09005783 -0.021100076 -0.19555907 -0.15221323 0.1692486 -0.28430846 -0.027110329
-0.001490579 -0.01583445 -0.20015994 -0.16746157 0.043602463 0.09268421 -0.10245908 -0.08665739
0.036870897 -0.09852095 0.07924257 0.08446058 0.018957557 0.03291404 0.017887108 -0.029134003
-0.07387702 -0.2363015 0.048573285 -0.048122305 0.088581175 -0.065420315 -0.046594057 -0.2001351
0.08335102 0.05394273 0.065769635 -0.26071578 -0.20006807 -0.16075893 0.041234758 0.00224068
0.12131083 -0.12725088 0.018973147 -0.24266711 -0.038313534 0.07090309 -0.3583559 0.04245139
-0.07681401 -0.0839257 -0.17766324 -0.046380945 0.07174235 -0.024286624 0.06407927 -0.08575895
-0.0693002 0.04979369 0.16925 -0.20261261 -0.25365955 -0.010838698 0.0010027835 -0.03535115
-0.009647585 0.022722783 -0.12859775 -0.2786374 -0.022381235 0.07519949 -0.09026308 0.056251917
0.07351316 -0.17252538 0.049335185 -0.017696815 0.028009541 -0.16667978 0.14623596 0.0144254565
0.014510836 -0.04547352 -0.039444443 -0.015232295 0.07666618 0.048015065 0.11615383 0.049855117
-0.027358023 -0.17189804 -0.28215536 0.13255514 -0.031191694 -0.06804447 0.14800483 -0.19306067
-0.067045376 -0.07411563 -0.13160044 0.023044232 0.18652523 -0.021492489 -0.010843044 0.07019021
-0.0058976375 -0.046336714 -0.057750456 -0.016132483 -0.23910932 0.122463904 -0.08566667 0.076630734
0.004157675 0.11576405 -0.0027537209 0.045338873 -0.042463318 0.04612296 -0.03556575 -0.15348408
-0.07444788 -0.053922057 0.108450785 -0.029921645 -0.047054153 0.012307153 0.023394138 -0.23908646
0.054295044 -0.00652953 0.053611673 0.029069763 0.16467015 -0.17106277 0.0628116 -0.067848295
-0.02624475 -0.056300145 0.08687707 -0.21912214 0.010883282 0.06546636 0.034244083 0.037888482
-0.048670657 0.11313143 0.05457322 0.06240771 0.02980132 0.10125107 0.026111353 0.03734299
-0.0074381577 0.1057515 -0.1814831 0.04892289 0.07424403 0.07858461 -0.07736218 0.052221667
00000000: 2980 e13b 8f09 0c3e 3600 23be cf21 35bd
00000010: 7bbb 043e d459 87bd cb39 b5bc 6884 6b3d
00000020: d4e4 fe3c 3732 34bd cb67 e4bc b119 443d
00000030: d196 a7bd 0d86 b43d 385f 68bd 1e36 d33c
00000040: 116f 16be 23dd c53d d368 013e 26ac 20bd
00000050: 4229 a9bc dd18 5b3d 6818 493c d625 42be
00000060: dce4 c23d d6f9 94bc cb59 9dbd bc19 ef3d
00000070: 0489 e73d ec05 303c 7a4c cdbc ed1e 8f3d
00000080: 3727 8bbd adcc a2bd 057e 3f3e 727b a13d
00000090: 4337 abbd 0d8c 7b3d e1f5 57bd c000 47bc
000000a0: aae2 16be 4a9f 79be fe3a aa3c 272f b43c
000000b0: 5c79 81bd c890 923c 642e d83d b897 01bb
000000c0: d788 f7bc 8161 24bd 85aa adbc 1502 433c
000000d0: 3692 873d 76df 4dbc dff5 69be 8b9a 22bd
000000e0: 47b5 953c 5328 90bd bf4f 263d a8a2 843d
000000f0: bd58 a3bb 1246 59bd 6fc6 fc3d 3a46 adbd
00000100: c506 6abe 70f2 63bd 9852 aa3d b2ab 9f3c
00000110: 9030 edbd f839 3b3d 2113 b2bd 1990 d7bb
00000120: 5014 813d 26a9 74bc 35bf 81bd ba87 48bd
00000130: ec01 683d 8364 e4bd c222 9abd 2e7a ebbd
00000140: 9f64 65be 2e80 af3d 1d36 2dbe 1d05 0d3c
00000150: 7d2e 4f3d d449 263d dbd1 a2bd 0942 223e
00000160: d7f3 1d3c 53dd 39be 6d78 6dbd 850c 273d
00000170: 294e 0abd 613d 84bc e4c4 b43d 507a f4bd
00000180: def4 96be 3d70 b8bd 11da acbc a340 48be
00000190: c9dd 1bbe 814f 2d3e e190 91be 7b16 debc
000001a0: 885f c3ba 40b7 81bc baf6 4cbe 0c7b 2bbe
000001b0: 7f98 323d 38d1 bd3d 11d6 d1bd 6e79 b1bd
000001c0: f005 173d 5ac5 c9bd ee49 a23d abf9 ac3d
000001d0: e14c 9b3c dfd0 063d fc87 923c 6faa eebc
000001e0: d64c 97bd 05f9 71be c8f4 463d e51b 45bd
000001f0: 0c6a b53d 16fb 85bd 69d9 3ebd 37f0 4cbe
00000200: f1b3 aa3d 0df3 5c3d 3bb2 863d 8a7c 85be
00000210: a5de 4cbe fd9d 24be c7e5 283d 5fd8 123b
00000220: d071 f83d 0e4e 02be 936d 9b3c ba7d 78be
00000230: a7ee 1cbd a435 913d 6d7a b7be 82e1 2d3d
00000240: aa50 9dbd 3de1 abbd 5aed 35be f2f9 3dbd
00000250: a7ed 923d bef4 c6bc fe3b 833d 63a2 afbd
00000260: 43ed 8dbd 78f4 4b3d df4f 2d3e ae79 4fbe
00000270: aadf 81be cb94 31bc d56f 833a 5ecc 10bd
00000280: e810 1ebc 2125 ba3c 21af 03be 90a9 8ebe
00000290: da58 b7bc 3102 9a3d dadb b8bd 6968 663d
000002a0: 118e 963d 7eaa 30be b113 4a3d e9f8 90bc
000002b0: 4474 e53c 1bae 2abe e1be 153e c058 6c3c
000002c0: dcbe 6d3c 7142 3abd 7f90 21bd e090 79bc
000002d0: 2803 9d3d 72ab 443d 0fe2 ed3d e134 4c3d
000002e0: ef1d e0bc 0a06 30be ab76 90be 89bc 073e
000002f0: b985 ffbc e65a 8bbd 948e 173e b2b1 45be
00000300: 164f 89bd efc9 97bd 44c2 06be 42c7 bc3c
00000310: 7800 3f3e 0411 b0bc 06a7 31bc e3bf 8f3d
00000320: f840 c1bb 91cb 3dbd be8b 6cbd 4528 84bc
00000330: 13d9 74be 5bce fa3d 0272 afbd 93f0 9c3d
00000340: 1b3d 883b b415 ed3d c577 34bb 41b5 393d
00000350: 04ee 2dbd 6eeb 3c3d 64ad 11bd ee2a 1dbe
00000360: 2178 98bd 60dd 5cbd 721b de3d 3d1e f5bc
00000370: dbbb 40bd f1a3 493c 10a5 bf3c 15d3 74be
00000380: 7b64 5e3d abf5 d5bb ea97 5b3d b623 ee3c
00000390: 4b9f 283e 142b 2fbe 5ea3 803d 0cf4 8abd
000003a0: 3bff d6bc fb9a 66bd 9bec b13d 8e61 60be
000003b0: cb4f 323c 3a13 863d 8643 0c3d f430 1b3d
000003c0: e25a 47bd 73b1 e73d 2b88 5f3d 3a9f 7f3d
000003d0: e621 f43c b95c cf3d 7ae7 d53c f7f4 183d
000003e0: cabb f3bb 3e94 d83d b5d6 39be 5e63 483d
000003f0: 410d 983d f8f0 a03d 1070 9ebd 63e6 553d

fc2.bias f4 [10]
0.014014988 -0.0019819015 -0.049431838 0.011676815 -0.11031641 0.01299255 -0.13099487 0.01589704
0.1277298 -0.030094424
00000000: 1f9f 653c cae2 01bb 0a79 4abd 1d50 3f3c
00000010: 92ed e1bd b4de 543c 8523 06be 823a 823c
00000020: 9acb 023e 9588 f6bc
